mnist_cnn_model.pth (torch, 164256 bytes, 8 tensors)

cnn_layers.0.weight f4 [32, 1, 3, 3]
00000000: c25b a33e 7ccc 05bf bde9 1b3d 111f 9b3e
00000010: 8117 303e 6bb6 0b3e cc11 e6bc a8bb 35be
00000020: e172 1e3e 9adc d93a c1f5 d0be 8974 183f
00000030: f9a3 683e 1bce e4be e551 073c 1d88 533e
00000040: 5e62 77bd 6f8a b9be 719c c73e 4ace 6e3e
00000050: aef2 3bbe d56c d23e 7549 70be b522 7cbe
00000060: a8bf 5abe 415c f4be b0fb 973e fdff a13e
00000070: 48ed cc3e df20 80bc ea91 ad3e 4f89 fd3c
00000080: f941 abbe 07b4 a43e af8a 16bf 85ff a6be
00000090: 1806 be3e ffa6 ce3e d95f f43e 8c99 6cbd
000000a0: 1a19 0fbd 6ce0 653d ccd0 25be a664 11bf
000000b0: bad0 03bf 03f6 24be a98d 563e 7895 dfbe
000000c0: 9f64 bf3e 9d74 a2bd b567 933d 4c7b a73e
000000d0: ee55 6b3e 802e 623e c637 2c3f f722 203f
000000e0: 7377 66be f7a2 e0bd d251 9cbe 21df 02be
000000f0: fc51 ccbc 26c9 ecbe 2e51 48be 42bf f1be
00000100: c415 42bd 3728 babd 814c 003f 5820 f43e
00000110: e41e b63e ef63 b2bd 5ce6 4abe f579 9d3e
00000120: 626c dfbe 0680 0ebf b477 a9be db31 833e
00000130: 3fda 41be 952d 7c3d b5fa 013f 2b50 a93e
00000140: 26ff b03e 1e48 70be cedb afbe bb61 50be
00000150: d7a3 adbd ae51 043c 3dbd 69bd b9e2 5a3d
00000160: 7ed9 a33e 9a58 38be ea97 b83e 5935 2a3e
00000170: 1d52 0bbf 76a5 bf3e b530 9abd be5c 06bf
00000180: 12af fe3e 7e8d bf3e a61d 63be 9e05 103d
00000190: 92c7 04ba f77d e8bd f602 babe 26b6 96be
000001a0: fd45 b73c 497a 96bd 074d 88be 25eb 21be
000001b0: 1786 34be 61d5 693d 7685 06be e74e 02be
000001c0: a094 e5be af01 e4be dff6 063f 8aff df3e
000001d0: 9506 1c3e 8fde 423c af68 193f cf64 2c3e
000001e0: 1ff4 7b3d 19f2 e6bd e5ed a23e 25c1 11bf
000001f0: c157 51be 1ff6 d03e f31f 8d3a b3f2 693d
00000200: 34d1 89be 7ab1 d5be 0004 9bbe 2e59 d13d
00000210: 18a1 cc3e 5dde 0b3e 5ab5 bc3e 7cf5 90bd
00000220: 234a 72be a05f 93bd 9e19 aabe cc8a 06bd
00000230: a888 c6be 3746 b9bd 9dc7 44be 7206 cebd
00000240: 167d 8fbe 40b0 02bf 7f86 083f 4064 1cbf
00000250: 49a7 923e 0308 823e 0fbd 43bd 0d6f c53e
00000260: 5adb 673e 891d 89be 2948 043d cfef f13e
00000270: 78ad aa3e b118 bdbd 5359 813e 32d8 82be
00000280: 2bf7 f1be 94d8 5c3e f462 d6be 915c fa3d
00000290: a8d5 803e 76af 153e 9633 b03d efe2 cc3e
000002a0: efbe 853d 0472 f8bd 92e8 5ebd 69f8 edbd
000002b0: 616e d43e 1965 98bd 52d6 ea3e 8533 babd
000002c0: cc16 61be eded 35be e0e6 8cbe 9984 613e
000002d0: 4b26 993e 0527 39be 605c b9be 1acb d83e
000002e0: df7e d63e 288e 6bbe dbc4 1abd de39 bc3e
000002f0: 5fff 663e 9832 c63d 0588 9f3e 6b1c 13bf
00000300: d95b cf3e 1e12 0fbe 5e9a ddbe db6b f83e
00000310: e9c5 a1bd 92ff 16bc f4b9 e4be 1068 e4be
00000320: fa9f eabe d4fa 69be cd1c 2d3e 4390 50be
00000330: 579e d63e 582c 833d 399a 003e ec10 933e
00000340: 479a 7b3e ef50 e53e 1b54 c33e 0a84 6fbd
00000350: 1fc3 39be ce8e debe a2d0 70be d9ee cfbe
00000360: f114 403e fec0 f5be acd1 0dbe 0ce8 833e
00000370: 1bd9 b0be 2082 79be 3972 ac3e 3f36 d73c
00000380: 16be e93e 5eb7 f7bc 4da4 be3d aeac 903e
00000390: 83f3 58be 6391 ddbe 988d e5be 10d2 9d3e
000003a0: ea4a 193e 8160 143e fc69 233e 32d4 b73e
000003b0: a318 12be 06f0 9abe d89a cf3e d57a cd3e
000003c0: bee3 e9be 92fd c1be 46ec 14be a9ab 4fbe
000003d0: d1bf 5cbe 9f6d 03be e473 bfbe ffc3 fbbc
000003e0: 99c2 86be 9634 423d c83d 31be 9c88 a1bc
000003f0: 2b40 d4bd 895f 88be 1936 c7be 545d 8b3e
0.31905943 -0.52265143 0.038064707 0.3029714 0.17196466 0.13643806 -0.028084658 -0.17747366
0.1547351 0.001662153 -0.40812495 0.5955282 0.227188 -0.44688496 0.008259271 0.20657392
-0.060396545 -0.3623843 0.38986543 0.2332088 -0.18354294 0.41098657 -0.23465522 -0.24622615
-0.21362174 -0.47726634 0.2968421 0.31640616 0.4002478 -0.015640674 0.33900386 0.030949263
-0.3344877 0.321686 -0.58805364 -0.3261682 0.37114024 0.40361783 0.47729376 -0.05776362
-0.034936048 0.05612223 -0.16192931 -0.567942 -0.51490366 -0.16109471 0.20952477 -0.43668723
0.37381455 -0.079323985 0.07197515 0.32711256 0.22981998 0.22088051 0.67272604 0.6255335
-0.22506504 -0.10968583 -0.30531174 -0.1278043 -0.024941437 -0.46247214 -0.19562218 -0.4721623
-0.04738404 -0.090897016 0.50116736 0.47680926 0.35570443 -0.08710467 -0.19814438 0.30757108
-0.43637377 -0.556641 -0.3309914 0.25623974 -0.1893091 0.061566908 0.50773174 0.33068976
0.34569663 -0.2346501 -0.34347385 -0.20349781 -0.084785156 0.008076115 -0.057065237 0.053438876
0.3200187 -0.18002549 0.360534 0.16621913 -0.5442217 0.37430924 -0.075288214 -0.52485263
0.49742943 0.37412637 -0.22179279 0.035161607 -0.00050651387 -0.11352151 -0.36330384 -0.29435843
0.02237224 -0.07347543 -0.26621267 -0.15812357 -0.17629276 0.05708826 -0.13136849 -0.12725411
-0.44839954 -0.44532534 0.52720445 0.43749648 0.15236886 0.011893882 0.5992536 0.1683533
0.06151211 -0.11276645 0.31822124 -0.5693534 -0.20443632 0.40812775 0.0010766968 0.05711622
-0.26917422 -0.41736966 -0.3027649 0.10222088 0.39966655 0.13659044 0.3685711 -0.070780724
-0.23661093 -0.071959734 -0.3322267 -0.03284721 -0.38776135 -0.090465955 -0.19216771 -0.10059823
-0.2802512 -0.51050186 0.53330225 -0.6109047 0.28643253 0.25396737 -0.047787722 0.38561288
0.2264227 -0.26780346 0.03229538 0.47253272 0.3333547 -0.09233225 0.2526346 -0.2555557
-0.47258887 0.21566993 -0.4187237 0.12224687 0.25163007 0.14617714 0.08603589 0.40016887
0.06530558 -0.12131122 -0.054421015 -0.11619646 0.41490462 -0.07441158 0.45866638 -0.09091858
-0.21981353 -0.17766543 -0.27519894 0.22023238 0.29912028 -0.18081291 -0.3620329 0.42342454
0.4189367 -0.23003447 -0.037785392 0.367629 0.22558354 0.09677619 0.31158462 -0.5746524
0.40499762 -0.13971755 -0.43281835 0.48519787 -0.078990765 -0.009216206 -0.4467312 -0.44610643
-0.45825177 -0.2284959 0.16905518 -0.20367531 0.4191768 0.06404942 0.12558831 0.28723848
0.24570571 0.4478831 0.38150105 -0.05847553 -0.18140839 -0.43468326 -0.23517087 -0.40611914
0.18757989 -0.47998804 -0.13849515 0.25762975 -0.34540638 -0.24366045 0.33680895 0.026270984
0.45652837 -0.030238803 0.09308682 0.28256744 -0.21186642 -0.43274984 -0.4483459 0.30824327
0.14969984 0.14489938 0.15958399 0.3590408 -0.1426721 -0.30261248 0.40547824 0.40132776
-0.45681566 -0.3788877 -0.14543256 -0.20280327 -0.21557547 -0.12834786 -0.37393105 -0.030733107
-0.2632034 0.04741343 -0.17308724 -0.01971846 -0.103638016 -0.26635388 -0.3890846 0.2721964

cnn_layers.0.bias f4 [32]
00000000: 7330 ab3e df3f 45be ae9a 393b 0f2f 0a3d
00000010: 2368 04bd 4dbf e53e ef5c 1ebe c1ae f63c
00000020: 7396 0e3a a74c e0bd 401c 67be 5bdf b43c
00000030: df09 3bbe 8688 21be c6df 903d 73c7 0bbe
00000040: 7777 72be dfd4 573e 8aa8 943e 7dd7 063e
00000050: d17f 4f3e 8fb1 aeba 3180 9dbe e875 6e3d
00000060: bc51 203d 855f dcbd 7534 d1bd 710a b0be
00000070: 9b36 5bbe d217 e8bd ee77 463d b07a 8a3d
0.334354 -0.19262646 0.0028320956 0.033736285 -0.032325875 0.44872513 -0.15465139 0.030112626
0.0005439289 -0.1095212 -0.2256937 0.02207916 -0.18265484 -0.15774736 0.070739314 -0.13650303
-0.23678385 0.21077298 0.29034835 0.1316814 0.20263602 -0.0013328063 -0.30761865 0.058217913
0.039140448 -0.107604064 -0.102150835 -0.34382966 -0.21407549 -0.11332668 0.048454218 0.06761682

cnn_layers.4.weight f4 [64, 32, 3, 3]
00000000: 09d5 22bc abc9 6b3d eaab 9fba e44a 99bd
00000010: bcb3 b03c 3b48 f2bd ec6c a1bb 454a 1d3c
00000020: 0147 21bd e5f7 debd d3df b0bc f32f 31be
00000030: dc8a 0ebe 4eee d0bd 2a84 c8bd 21b0 2dbe
00000040: 6010 e2bc b824 d73d c157 16bd 88ad 763e
00000050: 2613 3e3d 660a f83c 659e 013e eb08 11bd
00000060: e761 7bbd 6f91 c23d b7ee 10be 8142 c1bc
00000070: fc6c eb3d a61d a3bc 43ed 50bd 8650 953d
00000080: 9fd6 3dbe 36ea 1e3d 4342 d4bc 5e70 b8bd
00000090: cd86 243d ae45 163e 4ac7 4e3b 11d6 a93d
000000a0: 1d59 c43d a142 2fbd d12b 0bbe 7d60 853d
000000b0: d145 2cbd f958 10bc ec3e 8e3d 10fa 86bd
000000c0: efd1 013d 667a a43c 25a5 23be 646f 313e
000000d0: 7ed6 c83d 4c85 babc 42f0 143d e1bc 6b3e
000000e0: 640b 033d 01a1 d6bc bcc1 753d 1a4c 92bd
000000f0: bc06 dbbc 2947 803d 6777 bfbd c541 c53c
00000100: 8c18 88bd 74f1 1e3d 2dc8 c8bd 098c 8cbe
00000110: 8885 a2bd 24e5 bc3d c14b 8a3d d885 9cbc
00000120: 4ded 48be b065 32be 94f1 b23d 94c5 d5bd
00000130: bd3a a83b 421e f93c bb5c 703d 9a6b 0f3e
00000140: 484c 313d c872 16be f1cf 39be 05b7 5c3d
00000150: 48a8 9dbd e9cc 513c c8c8 fd3c f252 fe3c
00000160: b277 a6bc 5b42 a53d e62c 053c a951 a53d
00000170: 331b ebbc 8ebb 36bd cf9c 4dbd 89a2 8ebe
00000180: 9b8b 1cbd 1d22 623a 4f1b f63c 4e9e 1fbd
00000190: 4cea 10bd e5aa 2dbd fe08 943c 622a 94bd
000001a0: 2395 513c 5d9c dcbc 45d6 19bd 12e4 95bc
000001b0: 8f5b 77be b741 24be 0a4a c7bd a91f a6bd
000001c0: d44e 83bc 6435 a23c f924 223e 231d ed3d
000001d0: 1983 083e ae2c f73d 82e5 01be b7bc 45bd
000001e0: a8d9 00bd 1b45 0fbe 2d68 e0bd 92c0 a8bd
000001f0: 048b 27be aaee e9bd 652d a2bd 1c0e 3abe
00000200: 626a 8ebd f2af 73bc de2c 71bd 1445 9dbd
00000210: 4a75 423e 1a34 333e 360f c33d ea4e fcbd
00000220: c9e4 7bbd 7d19 3f3c ba5b 9ebd 505e de3c
00000230: e0de 11bd 18e8 cfbd 72b1 c7bd dea8 ddbb
00000240: 511c 2d3d 5299 4abe 45ba f93c cdac 343d
00000250: 2138 8dbe 1205 94bd 6bb7 f0bb 27b1 22be
00000260: 078c 04be 5ab8 093d aaf9 c6bd 7290 d3bd
00000270: 337c a6bd 7e56 b2bd b2ec 91bd 504c 12bd
00000280: 2d12 943c 92c3 16bd fefa 723d b7ca 1a3d
00000290: d127 aabd 077f 003e 4e1c 12be e32a c5bd
000002a0: e09d c13d 9770 3fbd e170 91bb 4282 873d
000002b0: a66e 183e 3d0a 3e3d 1b52 9c3c 5b73 723d
000002c0: 5161 14be 6220 f13b 797f 043e 4ff3 cebd
000002d0: d918 d4bc 8534 903d bcb9 c6bc 8302 4dbc
000002e0: 1e15 843d d5a4 3bbe b41a babb 402f c6bc
000002f0: fc45 e6bc 316c 71bd b179 0d3e 3f7b 8a3d
00000300: 999f 8bbc c7d9 4839 373b ffbd befc a43d
00000310: 3efc d33c a81b f43d f39b 5fbe cb68 19be
00000320: c9f3 42bd 4aba bdbd 54ef b9bd 921b 9fbc
00000330: ff4a 983d 9d11 893d 252e 363d 12f2 aa3d
00000340: 0098 2b3e 176b cc3a 6012 423d 009a 9f3d
00000350: bd0f cd3c 2192 edbc ea00 363d 71d2 96bd
00000360: 8744 45be f0b4 63bc feb5 d03c ed7e 0dbe
00000370: ff42 ff3c c50b 46bc 6d2b e13d 3450 ca3d
00000380: 73a4 943d e914 81be cef3 7fbe 44de 48be
00000390: 9159 1cbe e44a 333d 6e01 583d db50 553e
000003a0: a676 2c3e 2deb e53d 33fa e13d 9fc9 c1bc
000003b0: 4042 2c3d e07e a53c e724 99bd 91c7 92bd
000003c0: bffd 8abc db00 88bd b9e7 e9bd f5a9 5cbd
000003d0: 7be4 8cbd 6896 db3c 7442 01bd 1b65 413c
000003e0: 5545 a83d 7d62 573b 9586 0c3c df0d 0bbc
000003f0: 56d6 56be ef38 88bb a282 0a3d 54d3 21bd
-0.009938487 0.057565372 -0.0012181972 -0.074849874 0.021570079 -0.11830183 -0.0049263146 0.009600227
-0.039374355 -0.10887126 -0.021591103 -0.17303447 -0.13920158 -0.10201703 -0.09790833 -0.16961719
-0.027595699 0.105050504 -0.036704782 0.24089634 0.04640498 0.030278396 0.12658079 -0.035408895
-0.061372664 0.095003955 -0.14153562 -0.023591282 0.114953965 -0.019911598 -0.05100752 0.07290749
-0.18538903 0.03879758 -0.025910502 -0.09005807 0.04016762 0.14675018 0.003155189 0.08292783
0.095873095 -0.04278815 -0.13590933 0.06512544 -0.04205877 -0.008810275 0.06945595 -0.065906644
0.03169435 0.020077895 -0.15980966 0.17327648 0.09806536 -0.022768639 0.03636194 0.2302127
0.031993285 -0.02619982 0.059999213 -0.071434215 -0.02673661 0.06263573 -0.09348946 0.024079213
-0.06645307 0.038804486 -0.098038055 -0.27450588 -0.07935625 0.092233926 0.0675273 -0.01910679
-0.19621773 -0.17421603 0.087374836 -0.10438076 0.0051339553 0.030409936 0.058682185 0.1400589
0.043285638 -0.14692223 -0.1814573 0.05388548 -0.07698113 0.012805202 0.030979529 0.03104541
-0.020320747 0.08069297 0.00812838 0.08072216 -0.028699493 -0.04461246 -0.050198372 -0.2785838
-0.038219076 0.0008626299 0.030042319 -0.03896933 -0.035379693 -0.042399306 0.018070694 -0.072346464
0.012791905 -0.026930029 -0.03755786 -0.018297229 -0.2415602 -0.16040693 -0.09730919 -0.081115074
-0.0160288 0.01980085 0.15834416 0.11577823 0.1333126 0.12069069 -0.12685207 -0.048275676
-0.031457573 -0.13991205 -0.1095737 -0.08239855 -0.16361624 -0.11422475 -0.079188146 -0.18169445
-0.06953885 -0.014873492 -0.05888068 -0.07679191 0.18990055 0.17500344 0.09524386 -0.12319739
-0.061497483 0.011663792 -0.07732339 0.027144581 -0.03561294 -0.1015169 -0.09750642 -0.0067645153
0.042263333 -0.1978505 0.030484328 0.04411011 -0.27581885 -0.072275296 -0.007346084 -0.15887891
-0.12944041 0.033623077 -0.097155884 -0.10330285 -0.08129158 -0.08707903 -0.07125224 -0.03571731
0.018075073 -0.036807604 0.059321396 0.03779098 -0.083083756 0.12548457 -0.1426861 -0.096273206
0.094539404 -0.046738233 -0.004438505 0.066166416 0.14885959 0.046396483 0.01908212 0.059192043
-0.14490248 0.0073585967 0.12939252 -0.10105001 -0.025890755 0.07041267 -0.024258487 -0.012512806
0.0644934 -0.18324597 -0.005679453 -0.024192452 -0.028109543 -0.05894107 0.13815953 0.067617886
-0.017043876 0.00019154615 -0.12462466 0.08056019 0.025877114 0.119193375 -0.21836834 -0.14981382
-0.047595773 -0.092640474 -0.09078851 -0.019422326 0.07436179 0.066928126 0.0444776 0.083469525
0.16757202 0.001559588 0.047380805 0.07793045 0.025031919 -0.029000344 0.044434465 -0.07364357
-0.19264422 -0.013898119 0.025477406 -0.1381795 0.031159876 -0.012087767 0.10994611 0.09878579
0.07257929 -0.25211266 -0.24995348 -0.19616038 -0.15268542 0.043772593 0.05273574 0.20831625
0.16842136 0.11226497 0.1103405 -0.02365571 0.04205537 0.0202021 -0.07477742 -0.071669705
-0.016966699 -0.06640788 -0.11421151 -0.05387302 -0.06879517 0.026805118 -0.031557515 0.011803891
0.08216349 0.00328651 0.008577009 -0.008487194 -0.209802 -0.0041571776 0.033815987 -0.03950818

cnn_layers.4.bias f4 [64]
00000000: 6649 87bc 22dc 58bd c32f b63d d65b 30bc
00000010: c6a2 52bd f7f0 fa3c e9f7 ccbc 67f6 3f3d
00000020: f4d7 82bd 1439 823b 5d03 57bd 16b8 ba3d
00000030: dd5a a13d 37ce 0cbb 1c1b e33c 31dc 843c
00000040: bf7a 5bbc fd14 293b 0501 8b3d 6613 6b3b
00000050: 9916 3f3d bbc6 8bbd 8977 e2bc bf97 2abc
00000060: 0950 00bd b05a 883c a098 f8bc 72ad e03d
00000070: b9de 273d c869 ea3c f81a 2e3d 6e42 0fbd
00000080: 9f03 ffbc 554a bbbd 6529 b6bd d6b1 bd3d
00000090: e561 6bbd 84c1 1e3c e20e e6bc 3f9a bebd
000000a0: 248a a5bc bc1f 803c 9770 1cbd eceb 4e3d
000000b0: fa12 81b9 e2b1 21bc 57e5 233d 33af 773d
000000c0: b5f7 433d aae0 98bc 4493 cc3c b548 56bc
000000d0: 8e1b 003c 9e49 8d3b 0ffc 1c3d e424 d53d
000000e0: c9c6 fb3c 921e 00bd d313 b33b 70d6 4ebc
000000f0: 5e4a 8bbb ab22 d5bd 6ce2 1a3d 84a3 d53d
-0.016514491 -0.05294431 0.088958286 -0.010764083 -0.051424764 0.03063248 -0.025020557 0.046865847
-0.06388846 0.0039740894 -0.05249344 0.09117143 0.07878659 -0.0021485218 0.027722888 0.016218277
-0.013395964 0.0025799864 0.06787304 0.0035869717 0.04665241 -0.06825014 -0.02764489 -0.010412156
-0.031326327 0.016644806 -0.030346215 0.10970582 0.04098389 0.028614894 0.04250619 -0.03497546
-0.031129656 -0.09145037 -0.08894614 0.09262435 -0.057466406 0.009689692 -0.028083269 -0.09306764
-0.020207472 0.015640132 -0.03819331 0.05051796 -0.00024618936 -0.009869071 0.040013637 0.060469817
0.047843654 -0.018661816 0.024972565 -0.013078858 0.00781907 0.0043117544 0.03832632 0.10407427
0.030734437 -0.031279154 0.0054650097 -0.012624368 -0.0042508086 -0.10407003 0.03781359 0.10431579

cnn_layers.8.weight f4 [32, 64, 3, 3]
00000000: 9477 423d bd42 863d 8a75 74bd e01a 12bd
00000010: 38d4 173d 626c db3b 18e8 f43c b2d7 483d
00000020: 52bc 5fbd 9dff 01be ccd3 f9bd e15a d43b
00000030: 93ce 0c3e 942b 2d3d bc96 ee3c acd5 0abd
00000040: 5e78 c03c 31e3 823d 4c21 f43b c252 323d
00000050: f4c0 1d3d aebb f63d 5eff 953c bd92 e5bd
00000060: dcfb 8b3d bb47 263c 98af e1bd 8ca9 e1bd
00000070: a0f1 5fbd dfa4 9e3c bb46 503d d731 703d
00000080: 9345 973d b7a7 41bd 9244 26bd 4362 053d
00000090: b608 8d3d 4c42 843d b192 323d 5849 863d
000000a0: 045f 9e3c 25ee ed3c 126d b0bc 63b6 bebb
000000b0: 41a8 b9bc 7a81 aebd ce5c f0bc 2fd8 5b3c
000000c0: 2308 0d3e 752c 883d 1c71 6a3d 33e8 21bd
000000d0: 6010 c83c 855b 3e3d 0df3 9cbd d1dd 8dbd
000000e0: 04bb 43bc c66e 77bd 8a49 adbc 41c3 3a3d
000000f0: eb84 9c3d 7b48 da3c 52fc 92bd c49f e7bd
00000100: b603 90bc 0987 bbbc 6a24 663d e4a0 923d
00000110: 2ba0 e33d 652f 063e 5559 a23c aa92 ae3b
00000120: 4b80 cc3c addd 793c d605 fd3c 105e 993d
00000130: 228d dd3d 3d66 a3bd 7091 aebc edea 493d
00000140: e768 e0bc e8ab 9bbd eb17 a93d 5689 c0bd
00000150: 79ec a73d 7d01 293e 579f 0abe 02d5 52be
00000160: 6a92 17be 558c f4bd e189 7fbd affe e8bc
00000170: dde9 943d 8800 9c3d 00e0 a53a 6956 a23d
00000180: dae3 e7bc c4fe f93b 0e31 82bd 16b1 19bd
00000190: 7f36 0cbe 8d42 2abd a4cf 41bd 77f2 07bd
000001a0: 3a8f c53d 5431 103e 48fa 4d3d 196a 923d
000001b0: e23a f13c aba0 873c 9cca f1bd 725c f7bc
000001c0: 9d0a 5cbe d9d6 9ebc 0424 70bd 2755 e9bd
000001d0: b19a 5fbd f05f 083d 303c 9c3d e35b 013c
000001e0: cbe3 c43d 6896 d13c ee1b 5ebd d570 2d3c
000001f0: 2287 49be a5ed f9bd dbb0 a8bd b09d f3bb
00000200: 24bc 513d a123 b5bc 336d 8f3d 0232 d83b
00000210: be15 aa3d 286c 9a3d 1b23 babc 5d25 833d
00000220: 9c53 dfba a0cb 84bd 390d b7bc a2c3 fb39
00000230: 7a3c 07bc 9821 dfbc b4b6 103b ada7 84bd
00000240: 3339 a9bc d542 8a3c 79aa 7f3d 77a6 b13d
00000250: 1d5f cd3d 6e88 8c3c 54bf a83c bdb1 583d
00000260: 9dab 5c3d c8e4 88bc de5c 853c 8ec7 b2bc
00000270: c601 ca3d 5211 eebc aa25 01be b9a2 8bbd
00000280: 3a39 01be 3e4c b6bd 224c e53c 8768 ca3c
00000290: 48f6 00bd 5aca ca3d 4408 0b3e 006a 05bd
000002a0: 03d2 a6bd fd7d a03b d91f bdbd 5df3 f73d
000002b0: 0813 88bb 1b43 30bd f9a3 89bd 6146 cebd
000002c0: 7dc7 1ebe 9636 74bd 4aab 87bd 8411 17bd
000002d0: be33 243d 7943 8e3d e490 283d dabf 9a3d
000002e0: e5d8 e93d 5a15 3fbc 882f 67be 7a4f bebb
000002f0: 7568 37be e893 46bd be46 4d3d c6a9 a63d
00000300: 1c0d 1abd 0c19 3dbc 568c 26bc 4e43 abbb
00000310: 7a88 4a3d 9343 d9bd 3088 ff3d 6d51 a73d
00000320: 0949 0e3c 5c49 17be 7bf6 cfbd a1ed 20be
00000330: 406d fabc 88e1 83bd 68c8 fdbd 6810 1bbe
00000340: c2fe 913c 5e03 183d 2118 953d f509 123d
00000350: 4f5d fb3c 5730 17bd 7e49 aa3d 0d17 3abd
00000360: dd51 373d cc58 06bd 5a86 853c f40b 963c
00000370: 620f 99bd 1679 683d 1b17 023e 7794 86bd
00000380: 1321 efbd 3e11 ec3b d481 903d e696 e93d
00000390: f93d d53d 9a0b 093c 14e9 83bd e86a 91bc
000003a0: 50c1 593d 11d2 36be ffe5 c93d 0038 0d3d
000003b0: dd22 51bc 64c2 e7bd 696f 0a3b 1653 c9bc
000003c0: f62d 05be 7b23 aabd 3452 58bd d345 903d
000003d0: 79e6 e1bb 08b3 323c 49b9 963d d1d2 cebd
000003e0: db8f 85be acf0 2c3d 5132 71bc 4cd4 a0bd
000003f0: 1347 473d 8ab6 cbbb 4880 403b b14a bf3d
0.04747732 0.06555698 -0.059682406 -0.03567016 0.037067622 0.00669627 0.029895827 0.049033828
-0.054622956 -0.12695165 -0.121986 0.00648056 0.13750677 0.042277887 0.02912461 -0.03389518
0.023494896 0.063909896 0.0074502584 0.043535955 0.038514093 0.12047516 0.018310245 -0.11209629
0.06835148 0.010148938 -0.1101982 -0.110186666 -0.05467379 0.019365726 0.050848704 0.05864128
0.07386317 -0.047279086 -0.040592737 0.032564413 0.06886427 0.064579576 0.043596927 0.06556958
0.019332416 0.02904422 -0.021536384 -0.005820082 -0.022663238 -0.085207894 -0.029341128 0.013418241
0.13772635 0.066491045 0.057236776 -0.039528083 0.02442187 0.046474 -0.07663546 -0.06927074
-0.0119464435 -0.060408376 -0.02115323 0.045596365 0.076425396 0.02664589 -0.071770325 -0.1130977
-0.017579895 -0.022891538 0.05618707 0.07159594 0.11114534 0.13104017 0.019817987 0.0053275423
0.024963519 0.0152506055 0.030886572 0.07488644 0.108179346 -0.07978485 -0.021309584 0.04929631
-0.027393771 -0.07601148 0.08256515 -0.09401195 0.081994005 0.16504474 -0.13537346 -0.20589069
-0.14801946 -0.11940829 -0.06238735 -0.028441755 0.072711684 0.07617289 0.0012655258 0.07926638
-0.02830689 0.0076292474 -0.06357013 -0.037522398 -0.13692664 -0.041567374 -0.047317162 -0.033190217
0.09646459 0.14081317 0.050287515 0.07149143 0.029447023 0.016556105 -0.11806223 -0.030195449
-0.21488424 -0.019389557 -0.058628097 -0.11393195 -0.054590885 0.033294618 0.07628667 0.007895443
0.096137606 0.025584415 -0.054225855 0.010585983 -0.19680455 -0.1220353 -0.082368575 -0.0074345693
0.051204816 -0.022111716 0.0700325 0.0065977583 0.08304928 0.075401604 -0.022721818 0.06403611
-0.0017038467 -0.06484151 -0.022345172 0.00048020208 -0.008254165 -0.027237698 0.0022081556 -0.06477294
-0.020657158 0.016877571 0.062418435 0.08674329 0.10027907 0.017154898 0.020599045 0.05290388
0.0538746 -0.016710654 0.016279634 -0.02182367 0.098636195 -0.029060993 -0.12612024 -0.06818146
-0.12619486 -0.08901261 0.027990405 0.024708046 -0.031484872 0.09901877 0.13577372 -0.032571793
-0.08145525 0.0048978315 -0.0923459 0.12106965 -0.0041526593 -0.043032747 -0.067207284 -0.100720175
-0.15505786 -0.05962237 -0.06624468 -0.03688194 0.040088408 0.06946463 0.041153803 0.07556124
0.114183225 -0.011662805 -0.22576725 -0.005807814 -0.17910941 -0.0484809 0.050116293 0.081378505
-0.03761016 -0.011541616 -0.010165295 -0.005226529 0.04944656 -0.10608592 0.124771476 0.081698276
0.008684405 -0.14774078 -0.10154434 -0.15715648 -0.030569673 -0.06439501 -0.1239174 -0.15142977
0.017821673 0.037112586 0.07279993 0.035654027 0.030684141 -0.036911335 0.08314799 -0.04543214
0.044755805 -0.032799527 0.016299415 0.018316247 -0.07473637 0.0567561 0.12704127 -0.06571286
-0.1167623 0.007204204 0.07056013 0.11405735 0.10412211 0.008364582 -0.064409405 -0.017751172
0.053162873 -0.17853571 0.098583214 0.034477234 -0.01276466 -0.11316374 0.0021123535 -0.024575751
-0.13005814 -0.083075486 -0.05281277 0.07044568 -0.0068939296 0.010906942 0.07359559 -0.10098804
-0.26086316 0.04222171 -0.014721469 -0.078529924 0.048651766 -0.0062168287 0.0029373337 0.09340418

cnn_layers.8.bias f4 [32]
00000000: bd0c b43d 0fb3 033d 4699 d0bc 4570 debc
00000010: f6e4 4d3d 23b1 b43b 412d c83c 9116 49bd
00000020: 8a5c 0c3d 6f26 f23c 946a 16bd 1fc2 ebbc
00000030: 5d0f 33bd e692 943d 5fa3 06bd 59f0 e0bc
00000040: 2869 acbc dbb1 25bd f1be 61bc 5db1 963c
00000050: 8478 723c 0adc 483d 67f0 50bd c9b5 3c3d
00000060: d486 143c 08ba 4e3d bb29 67bd ec78 853c
00000070: dab5 21bd 64ec 75bd d41e 623d 2733 983c
0.08791492 0.032153185 -0.025463711 -0.027153144 0.050267182 0.0055142804 0.024435641 -0.049093787
0.03426794 0.029559342 -0.036722735 -0.028779088 -0.043715823 0.07254581 -0.032870647 -0.027458357
-0.021046236 -0.04045282 -0.013778434 0.01839512 0.014799241 0.04903797 -0.051010516 0.0460718
0.009065349 0.050470382 -0.05643628 0.016293012 -0.039480068 -0.060039893 0.05520518 0.018579079

cnn_layers.12.weight f4 [10, 288]
00000000: 3dca 5f3d e6e9 81bc ced4 0abd 8eb2 58be
00000010: 7dbe f6bb 0e65 0ebe af79 4e3d fcab 883c
00000020: 6934 e53d 7bfb bfbd 1ae4 143b 74c4 42be
00000030: c33a d83d 4a58 b53d 5ca2 b8bd f4f4 02be
00000040: ae80 123d 2ac0 b0ba 84b6 debc 4054 94bc
00000050: bc83 fdbc 04ff c13b 0740 8bbe 1cef 7d3d
00000060: 99cf 7a3d 3e77 e93d fbd0 be3d e21b 8abc
00000070: b34c 45bd 24bd 33be f118 973d 6474 8b3d
00000080: 90d3 88bc fc1b 9a3c 9bdf 993d 5157 1abe
00000090: e0eb fdbc abcb 113d a3be c1bb 0129 ce3b
000000a0: 5070 f2bd 44a0 ce3c 913f 3b3d d7dd eebd
000000b0: 6401 303e f620 e53b 798a da3c b8a0 9bbc
000000c0: 3c3d 1f3d 58d8 fcba 5c43 fcbd 8591 bf3d
000000d0: 3ea8 e0bd 8a96 6e3d 4294 333d 3c40 3abd
000000e0: 4f3e 97bd d9e9 74bc 7f94 ebbc 10f4 2dbd
000000f0: f2c8 393c a500 4a3d d350 10bc c7af 80bd
00000100: 825b e2bd 948b b9bc 1ff1 0dbe 7d80 e03c
00000110: f607 ffbd 8934 5f3d 02a6 203d ef89 5cbd
00000120: 6e5e 8c3b 34ff dd3c d5d8 45be f040 703d
00000130: ea1f cebc 86f4 fa3d 41df fcbc d9d2 aebd
00000140: 36b9 893d 3770 013d 0ea1 d0ba a155 c4bd
00000150: 7ed9 f93c bd97 af3d 45b9 4c3d e495 d93c
00000160: 912b fb3a 5f7a 82bd 20c5 583d e6cb 0c3d
00000170: d9e1 943d ad18 7abd 40af 66bd 990f 523d
00000180: adc8 85bc 5081 94bc 774f 10be 33cf 89bc
00000190: 8bbc a0bd 20f4 203c 0c8d 593d ab70 afbd
000001a0: 452a ac3d a224 803b 130f d9bd b8b9 f63c
000001b0: ad08 18bd 0c47 ccbd f610 a63d 979c 0dbe
000001c0: 19a2 4cbd 0626 693d 88a8 dd3c 0613 b83d
000001d0: 65ea 01be 4671 65bd d215 133d c413 bebb
000001e0: 9954 ae3d a34d 353e 9da9 39be f16f 29be
000001f0: 126e 12be 3b74 6abe bb72 573d 5283 a0bd
00000200: d992 15bc 007a 86bd b28f 783b 006f 4fbb
00000210: 1268 f0bc 6b57 ee3c b7fc 1fbd dd6f 73bc
00000220: fe97 923d eab7 fbbc 09e8 8d3d 778a a7bd
00000230: a790 073d c5ea f0bc 2ec8 543d 0f49 9f3d
00000240: 18e5 4fbd 124c 2fbd ef09 ba3d d1be 8a3d
00000250: 83fc cabd cd00 2bbd 2650 973d 87ec 97bc
00000260: c978 26b9 cb0f 5abd 27cd 10bd 4261 f43c
00000270: 25a6 e3bd 3860 4bbd 51ee bd3d 43b1 5dbd
00000280: 9567 cd3d f2c6 80bd 5fd2 a43d d316 d2bc
00000290: b75c 02be d456 ab3d 549a fbbd a267 7a3d
000002a0: dce4 1fbd 5f9c 95bd 2429 2c3d f421 783c
000002b0: 2bf1 0d3d ec0c aa3d 601f ab3b 7bbd 00bd
000002c0: d3de 7abe 49e7 e6bd f9e9 9b3d 1765 083c
000002d0: 750f ab3d e256 5a3d 6e75 a63d f6f9 7ebd
000002e0: 4e92 f73c a56a 2d3d baef d7bc ad31 1fbe
000002f0: d4a0 99bd 41da 0abd 9a7e 83bd 658d b73b
00000300: 3771 a73d fef5 cebd 3e04 1abe 2497 85bc
00000310: 200d ea3d a070 5a3d 4110 86bd f77e 883d
00000320: 1dd0 3c3b 181d ae3a ae72 263d e488 bc3d
00000330: 3754 9dbd fd35 7cbd 162a 0bbe a023 cc3d
00000340: 3650 58bd a16c e33d 0334 57bd 0938 1e3c
00000350: 9b7d 0f3d a2f5 343d 02e6 133e 2cd0 65be
00000360: 10ba cabd c582 09bb b672 2bbd e096 083d
00000370: cc31 35bd 3781 423c 0215 3d3b b05c 41bc
00000380: ab33 06bd 31f5 1f3d a0a5 00be 6d14 28bd
00000390: 10b7 c9bd 1a43 133e b7b5 613d 7e5c a5bc
000003a0: cd7c 93bd 02b9 73be 413f 9a3c b7b6 8e3d
000003b0: 7610 f53c 95d9 503d 8af8 223d 87ff 653d
000003c0: f6e6 28bd 851f f93c 71bd b23c 8cf6 d63c
000003d0: cf48 213d 363c 323d feb4 883d fef3 213d
000003e0: 728f 6d3d 7ec6 95bc e69c d23d 658c 123d
000003f0: 7b88 52bc f7f6 b63c eccf 84bb b1ac 073e
0.05463623 -0.015858602 -0.033894353 -0.21161863 -0.007530032 -0.13905737 0.050409015 0.016683571
0.11191637 -0.09374138 0.0022718967 -0.19020253 0.10558083 0.088547304 -0.090153426 -0.12788755
0.03576725 -0.0013485004 -0.02718664 -0.01810658 -0.030946605 0.005920293 -0.27197286 0.06199561
0.061233137 0.11399697 0.093172036 -0.016858999 -0.04816885 -0.1755262 0.07377804 0.06809309
-0.016702443 0.018812172 0.075133525 -0.15072371 -0.030996263 0.035594624 -0.0059126182 0.006291509
-0.11837828 0.025222905 0.04571492 -0.11663406 0.1718803 0.0069924546 0.026677357 -0.018997535
0.038876757 -0.001929055 -0.12317535 0.093539275 -0.1096959 0.058249034 0.04384256 -0.045471415
-0.07384931 -0.014948332 -0.028757332 -0.042469084 0.011339413 0.04931702 -0.0088083325 -0.06283527
-0.1105261 -0.022649564 -0.13861512 0.027405018 -0.1245269 0.05449346 0.039220817 -0.05384248
0.004283718 0.02709923 -0.19320996 0.05865568 -0.025161702 0.122536704 -0.030868175 -0.0853631
0.06724779 0.031601157 -0.0015917139 -0.09586645 0.030499216 0.08573864 0.049981374 0.026560731
0.0019162764 -0.06370997 0.052922368 0.03437414 0.072696395 -0.06105869 -0.056319475 0.051284406
-0.016331041 -0.018128067 -0.14092813 -0.016822433 -0.07848462 0.009823829 0.05311303 -0.085664116
0.084065 0.003910617 -0.10598578 0.030117854 -0.03711765 -0.099744886 0.08108704 -0.13829266
-0.049959276 0.056921028 0.027057901 0.089880034 -0.1268707 -0.05601623 0.03590948 -0.005800696
0.085122295 0.17705397 -0.18131109 -0.16546609 -0.14299801 -0.22895901 0.05259965 -0.07837547
-0.0091292495 -0.065662384 0.0037927446 -0.0031651855 -0.0293465 0.029094419 -0.039059367 -0.014858213
0.071578965 -0.030727345 0.06929023 -0.08180707 0.033096936 -0.029408822 0.05194872 0.07777607
-0.05075559 -0.042797156 0.09083926 0.067746766 -0.09911444 -0.04174881 0.07388334 -0.018545402
-0.0001587599 -0.053237718 -0.0353519 0.029831532 -0.11115674 -0.04965231 0.09273971 -0.054124128
0.10029522 -0.06287946 0.080479376 -0.025645649 -0.1273068 0.083661705 -0.12285295 0.06113399
-0.039036617 -0.07305216 0.042031422 0.015144814 0.034653824 0.08303246 0.005222246 -0.031430703
-0.24499063 -0.11274583 0.07612986 0.008324883 0.083525576 0.053305514 0.08127867 -0.0622501
0.03022113 0.042338032 -0.026359428 -0.15546294 -0.07501379 -0.03389955 -0.06420632 0.0056015723
0.08175891 -0.10105513 -0.15040681 -0.016307421 0.11428285 0.053330064 -0.06546069 0.066648416
0.0028810569 0.0013283817 0.04063671 0.09205797 -0.07682078 -0.061574925 -0.13590273 0.099677324
-0.05281087 0.11104704 -0.052539837 0.0096569145 0.035031896 0.044179566 0.1444321 -0.22442693
-0.0989877 -0.0020982486 -0.041857444 0.03334701 -0.044236943 0.0118716275 0.0028851633 -0.011801884
-0.03276412 0.039052192 -0.12563181 -0.041035105 -0.098493695 0.14381066 0.055104937 -0.020185705
-0.07201538 -0.23801044 0.01882899 0.06968444 0.029915076 0.050988752 0.039787807 0.056151893
-0.041235887 0.030410537 0.021818848 0.02624061 0.039376076 0.043514453 0.066751465 0.03953933
0.05799813 -0.018283125 0.10283832 0.035778422 -0.012849922 0.022334559 -0.0040531065 0.1324947

cnn_layers.12.bias f4 [10]
00000000: dda0 f43b 5de3 b33d 66aa 64bb 2e75 80bd
00000010: b6a9 3f3d b52e 9ebc cfa5 6abd 1341 6c3c
00000020: c827 f13c 7251 f0bc
0.0074654655 0.087836005 -0.0034891604 -0.0627235 0.04679271 -0.019309381 -0.057287034 0.014419812
0.029437914 -0.029335711
